CrysToGraph/jarvis/CGCNN/atom_representations_86_1.pt (torch, 23403 bytes, 1 tensors)

weight f4 [86, 64]
000000 01 96 0d bc f0 87 78 be 9f c7 97 3d dc b6 56 3d
       -0.008641721 -0.24270606 0.074111216 0.052420482
000010 a7 d5 50 3f 0e a3 16 3e 7d 7a 8b bd 9c 3d 8e 3e
       0.8157601 0.14710638 -0.06810472 0.2778138
000020 97 60 a7 3e 15 dd c0 3e c8 80 20 bf 21 99 aa 3e
       0.3269088 0.37668672 -0.62696505 0.33319953
000030 25 b0 53 bd 04 0a 6b bf a3 b1 fb 3e 1d 89 64 be
       -0.051681656 -0.9181216 0.49158964 -0.2231793
000040 f8 0c 86 be 58 a2 85 bf 16 31 82 be 4a 18 04 3e
       -0.2618177 -1.0440168 -0.25428075 0.1289989
000050 61 14 09 bf 7c 4e 74 be d3 41 1b 3f b1 12 a0 3d
       -0.5354672 -0.23858064 0.60647315 0.07816065
000060 cb 92 90 3e 78 ea 9f bf 2e 10 c5 bd 28 67 16 bf
       0.28236994 -1.2493429 -0.09622227 -0.58751154
000070 2d 84 b6 3e 99 89 f2 3f 55 76 4a bf 95 72 40 3f
       0.35647717 1.8948241 -0.7908681 0.7517484
000080 09 42 83 3e 3d 43 19 3f 8f 0d a2 be f6 75 94 bf
       0.25636318 0.5986822 -0.3165097 -1.1598499
000090 1f fb 37 bf 83 fb a5 be 06 c3 ac 3e f9 3e 89 be
       -0.71867555 -0.3241845 0.3374254 -0.26805857
0000a0 97 e8 f9 3d 7a 94 d1 3e 8f 06 f3 3d 37 73 75 3e
       0.12202566 0.4093359 0.11866485 0.23969732
0000b0 a5 87 b6 3e 4b 7d 10 bd db 22 a2 bd db 43 fd 3e
       0.35650364 -0.03527574 -0.079168044 0.49465832
0000c0 53 ff 94 bc 32 52 55 3b 16 3c 3a bf 74 0b b5 3d
       -0.018188154 0.0032550213 -0.72747934 0.08840075
0000d0 d9 d4 6b 3e ab b1 17 3f d5 b0 b0 3e 8e c2 0c 3b
       0.23030414 0.59255475 0.34509912 0.0021478268
0000e0 18 6d 36 be aa c6 b9 3d 40 e2 18 3f 43 1d 06 bf
       -0.17815053 0.09071095 0.5972023 -0.523884
0000f0 99 43 b5 3e 17 d0 8c 3d a6 f8 fc 3e 81 06 f2 3d
       0.35403135 0.068756275 0.49408454 0.11817647
000100 37 79 cd bd b7 78 54 3f 6a 4f a1 bd 14 1b 2c bf
       -0.100328855 0.82996696 -0.07876475 -0.6722882
000110 16 63 3d 3f 93 6e 9e be a7 6a de be e5 d1 b2 be
       0.7397932 -0.30943736 -0.43440744 -0.34925762
000120 ef 50 05 3f ae 16 8e be 0e a1 12 bf 0b 52 2c 3e
       0.5207662 -0.27751678 -0.57277 0.16828172
000130 66 18 8f be ab df 8c be 01 5e 6c bf 03 7b 5e bf
       -0.27948302 -0.27514395 -0.9233094 -0.8690645
000140 bc fb 80 bf d9 a7 5e 3d 20 a9 d8 3d 9f 4c 4b bd
       -1.0076823 0.05435929 0.10579133 -0.04963362
000150 11 29 9e be e8 bc 25 3f f2 21 4b be 69 41 bd be
       -0.30890706 0.64741373 -0.19837168 -0.36963966
000160 ea d0 2b 3f 67 50 64 bd b5 2b ae 3e 87 40 b0 be
       0.6711565 -0.05574074 0.3401772 -0.3442423
000170 7c 34 ba be b3 2f 14 3f d6 b0 fb be 92 f5 58 3e
       -0.36368167 0.57885283 -0.49158353 0.21187428
000180 a6 9e 6c 3f 1f 4e 2e bf fe 7f 05 3e a3 1b 8f be
       0.9242958 -0.68087953 0.13037106 -0.27950773
000190 42 49 30 bf 0e 83 24 bd 7d f9 95 3c 22 c2 14 bf
       -0.6886178 -0.040164046 0.018307442 -0.58108723
0001a0 cd 4c a5 3e 08 cd 6a 3f d1 94 f8 3e b9 99 00 bf
       0.32285157 0.917191 0.48551038 -0.5023456
0001b0 60 a5 b2 be 29 87 f8 be 39 26 0f 3e e4 8d ba be
       -0.34891796 -0.4854062 0.13979425 -0.3643638
0001c0 3f 61 98 3f 5d e7 a9 3e 02 7a 05 bf 8f f1 23 bf
       1.1904677 0.3318433 -0.52139294 -0.64040464
0001d0 a9 09 24 bd 86 9c b9 3e 80 fa 8d 3f d1 fb 19 3e
       -0.040048275 0.3625223 1.1092072 0.15037467
0001e0 7e 7a 81 3d a5 bf e6 be db 03 29 3c cb 59 2b bf
       0.06322192 -0.45068088 0.010315861 -0.6693389
0001f0 4a 8e 07 bf 24 a2 a5 3e 2d d9 97 3d 0e f7 3a bf
       -0.5295149 0.32350266 0.0741447 -0.73033226
000200 c6 72 7e bf 4a 43 af 3f de 7a 91 be 73 ac 0b bf
       -0.9939388 1.369241 -0.28414053 -0.5456001
000210 ca 8a 36 3f 54 7e 08 3e fa 9c a2 3e fe ac 55 bf
       0.71305525 0.1332944 0.3176039 -0.8346709
000220 41 a4 d3 bc 2c c0 d6 3e 34 39 7d bf 5d 4e 33 3e
       -0.025835158 0.4194349 -0.9891541 0.17510362
000230 2c 52 06 3f f6 c2 ba 3e 31 fa 63 bf aa 28 d4 3d
       0.52469134 0.36476868 -0.89053637 0.103593186
000240 5e a5 c5 be 0c 9f 80 bf ae ae 73 3f eb cc 0e 3f
       -0.38602728 -1.0048537 0.95188415 0.5578143
000250 f2 57 6f bf 6b 07 e8 3e de b1 51 bf 27 dd 03 3f
       -0.9349357 0.4531816 -0.8191203 0.51509327
000260 d9 8f 9b 3e c0 96 8f 3e 25 d0 bb be d5 a7 88 bf
       0.30383185 0.280447 -0.3668224 -1.0676218
000270 06 f6 82 3e 3a 15 26 3f 8e 44 bd 3e e9 04 56 3e
       0.25578326 0.6487614 0.36966366 0.2090031
000280 57 63 06 3f 9c 25 40 3d dd 63 32 3f fc e0 83 3f
       0.5249533 0.046910867 0.6968363 1.0303035
000290 59 65 18 bf dd f7 ca 3e 05 67 29 3f 94 36 5c 3f
       -0.59529644 0.3964223 0.6617282 0.8602078
0002a0 28 2d cd 3e 5b 01 86 bd 13 71 f1 3e c6 75 82 3e
       0.40073514 -0.06543227 0.4715658 0.2548048
0002b0 fd 41 9c be 6c 98 3e 3e 6c b5 8d 3e 1a 2c ff 3e
       -0.30519095 0.18612832 0.27677476 0.49838334
0002c0 2e bd 97 3d 08 48 05 bf 6f d4 93 3e e2 31 fb 3e
       0.0740913 -0.52063036 0.2887301 0.49061495
0002d0 b0 84 bf 3d 38 4a e8 3e 1c 02 0b be 6f 4e 9e 3e
       0.0935148 0.45369124 -0.13575023 0.30919215
0002e0 6a 66 9c be 53 76 57 be 2a 6e b3 be 2d ca 2c 3d
       -0.30546886 -0.21041231 -0.35044986 0.042184997
0002f0 5a ce 13 be 62 20 b4 3e 01 0f ba bc 45 6b c9 be
       -0.14434186 0.35180956 -0.022712233 -0.39339653
000300 db 50 82 3f 80 01 56 3e bd f0 67 be 1c 76 8b bf
       1.0180925 0.2089901 -0.22650428 -1.0895419
000310 99 eb 04 3f 73 80 4b be ad d5 eb 3c da 76 c2 be
       0.51921993 -0.19873218 0.028788412 -0.37981302
000320 81 73 32 3e cf 60 22 3f cc 05 aa be a9 b8 da be
       0.17426874 0.6342897 -0.33207548 -0.4271901
000330 d1 cd 03 3e 42 f1 0e 3f d2 85 8c 3e c2 b5 6e 3c
       0.12871481 0.5583688 0.27445847 0.014569702
000340 fd 79 85 bf b0 23 b8 bc 55 60 78 3e 14 bc 68 3e
       -1.0427853 -0.022477955 0.24255498 0.22727996
000350 a8 5d da be 0d 43 05 bf 18 79 9d 3d b3 82 12 3f
       -0.4264958 -0.52055436 0.076891124 0.5723068
000360 35 5b 7f 3f 55 ad c6 3e 1d 71 83 3e d1 5c c5 be
       0.99748546 0.38804117 0.25672236 -0.38547376
000370 76 df 95 3e b1 b0 a5 3e fc 4b 2c bf 00 2c 2f 3e
       0.2927205 0.32361367 -0.6730344 0.17106628
000380 73 96 b1 3d c5 25 88 3e 86 ef a3 be bf c2 19 3f
       0.08671274 0.26591316 -0.3201868 0.60062784
000390 ca 16 10 bf a7 96 68 3f 09 e7 7e be 85 6d d2 3e
       -0.56284773 0.9085488 -0.2489282 0.41099182
0003a0 0c e1 14 3f 35 96 a4 3f 0e 78 77 bc 64 30 0d bf
       0.58155894 1.285834 -0.015104307 -0.55151963
0003b0 7e 86 45 3f 05 98 0c 3f c7 c3 a2 bd f3 8e da be
       0.77158344 0.54919463 -0.07947498 -0.42687187
0003c0 9c 08 22 be 4c 6e bb 3e 0e 38 42 bf d5 9e 62 3f
       -0.15823597 0.36607587 -0.7586678 0.8852361
0003d0 0e e2 4c 3f a5 8e 6d bf 33 e7 c0 be d7 5f 13 3f
       0.8003243 -0.92795783 -0.3767639 0.57568115
0003e0 1d f3 78 3d cc 3b 25 be 9d 55 8e 3c 56 d4 0b bf
       0.060778726 -0.16136092 0.017374808 -0.54620874
0003f0 b4 a4 49 3d 1a 61 bc 3e 97 c0 5a bf 45 af 83 3e
       0.04922934 0.36792833 -0.8545012 0.25719658
